navigation_checkpoint.pt (torch_old, 36425 bytes, 8 tensors)

fc1.weight f4 [64, 37]
-0.5522483 0.35780466 -0.018110903 -0.77144235 -1.8851514 0.37842795 -0.3094846 -1.2960473
-0.6817419 -1.2663878 -0.37697312 0.49087194 -0.37630695 -0.97604316 -1.3899363 -0.41073596
0.37515795 -0.43651944 -1.4377757 -3.8185709 0.27314925 -1.0613672 -0.1798069 -1.3335408
-3.0538542 0.17956825 -0.5819633 0.38079593 -0.7528439 -3.352819 -0.40553176 -0.30042386
0.34801555 -1.3448898 -3.6194575 0.100487605 -0.0009840403 0.68244094 -2.420672 -1.8014998
-1.8467786 -4.5081573 -0.73310786 0.24641529 0.21776037 0.6124917 0.2213664 -0.029918252
0.11789468 0.24004078 0.4457136 -0.017062431 0.04305712 0.19840091 0.51349527 0.39152232
0.44778582 0.18038118 -0.08405323 0.1459821 0.15922657 0.14911646 -0.008391277 0.47923967
0.013217234 0.1319659 0.56317496 -0.024714582 0.47479102 -0.10718399 0.4469938 0.118663706
-0.0067499904 0.016882166 -0.62636906 0.12448346 -0.307323 0.2769221 0.9612678 -0.14692242
-0.85907185 0.34125087 -1.9274982 -0.7678399 -0.63088 -1.3623759 0.14353544 -0.787755
-0.4771816 -0.30077288 0.41668424 -0.7003129 -1.3670278 1.0585282 -1.3300955 -0.584344
-0.23915473 0.35804343 -1.9249635 -0.05802948 -0.6713834 -0.03929591 -0.063218065 -0.6717192
-1.1710222 -0.29745737 -0.2552935 -1.4294138 -1.2749581 0.13565454 0.032039247 -0.48693043
-1.3434548 -0.41256416 0.6259081 -0.9424117 -1.6639172 0.16751502 -0.46439043 -0.16455123
0.09904084 0.4552617 -1.7098367 -1.5599686 -1.5228155 -1.542273 0.51499933 -1.0536382
-1.9702668 -0.29099602 -0.6570135 0.29054487 -0.94582707 -0.31625444 -0.77321595 -0.41651523
-0.37383205 -0.7861673 -0.09913978 -0.864915 0.74933743 0.0046525938 -0.22972624 -1.3118647
-0.6299495 0.2677309 -0.40380374 -0.24170771 0.65438545 -1.4348983 -0.9603226 -1.6576504
-3.2771297 0.11652268 -1.4532943 -1.5378063 -1.4672521 -2.7195039 -0.19084421 -0.34575376
-0.28907192 0.23444466 -0.19114232 -1.6796436 0.4831845 -0.41483834 0.25438443 -0.5534784
-0.26878455 -0.9241438 0.39902416 -0.83573437 -0.561576 -0.18866381 -0.22501191 -0.48814708
-1.2120382 -2.0136092 0.09723164 -0.59619945 -0.82760805 -1.1910374 -0.3636803 0.07507054
0.12027104 0.19014229 0.28206035 0.04833421 0.54024905 -0.013717563 0.41345897 -1.0194514
-1.7146621 -0.8003354 -5.881983 0.0054726354 0.39963615 0.073032044 0.3269811 0.09470758
0.26316178 0.107374385 0.32585883 0.051368486 0.22411467 0.28865373 0.48542127 0.12105626
0.41714638 0.14511167 0.17198652 0.4981035 0.56870246 0.09646814 -0.1311094 0.059694692
0.1206803 0.21715532 0.57910466 0.11511309 -0.06305616 -0.007914397 -1.427038 -0.8636714
0.101511456 -0.22850478 -2.459575 -0.82338536 -0.8038214 0.33721337 -0.8987405 -0.47338888
0.039964505 0.14604734 -0.93503046 -1.6479366 -0.13108048 -1.2076175 -0.77819836 0.7592517
-0.22000486 -1.3701599 -0.4165886 0.4752312 -0.9741282 -0.46342126 -0.81520414 -0.45870635
-0.4985603 -0.11015686 -1.5377988 -1.9557933 -0.91624856 -1.0337319 0.8543016 -1.2729108
00000000: 2560 0dbf 2c32 b73e 515d 94bc 3f7d 45bf
00000010: a44c f1bf 4fc1 c13e c474 9ebe e1e4 a5bf
00000020: a386 2ebf ff18 a2bf 9f02 c1be 9153 fb3e
00000030: 4eab c0be f7dd 79bf 6fe9 b1bf fc4b d2be
00000040: b414 c03e 7a7f dfbe 0909 b8bf 7763 74c0
00000050: 38da 8b3e e1da 87bf 4d1f 38be 77b1 aabf
00000060: 5972 43c0 bde0 373e 8cfb 14bf aff7 c23e
00000070: 61ba 40bf 9694 56c0 dca1 cfbe 28d1 99be
00000080: 182f b23e 5925 acbf 31a5 67c0 72cc cd3d
00000090: eafa 80ba 73b4 2e3f 4aec 1ac0 8c97 e6bf
000000a0: 3e63 ecbf d342 90c0 f5ac 3bbf 4a54 7c3e
000000b0: 93fc 5e3e 42cc 1c3f e0ad 623e 1f17 f5bc
000000c0: c472 f13d 40cd 753e 9334 e43e 83c6 8bbc
000000d0: aa5c 303d 9c29 4b3e 6d74 033f 9d75 c83e
000000e0: 2f44 e53e d8b5 383e 1a24 acbd 557c 153e
000000f0: 4a0c 233e fcb1 183e 917b 09bc e75e f53e
00000100: 198d 583c 1222 073e 3c2c 103f 3c76 cabc
00000110: cf17 f33e 4883 dbbd 5fdc e43e f505 f33d
00000120: 062f ddbb 784c 8a3c b959 20bf 2ff1 fe3d
00000130: 7159 9dbe bcc8 8d3e a615 763f d572 16be
00000140: 22ec 5bbf 6fb8 ae3e 43b8 f6bf 2891 44bf
00000150: 5a81 21bf 5562 aebf f4fa 123e 50aa 49bf
00000160: 2651 f4be e7fe 99be a357 d53e b547 33bf
00000170: c4fa aebf da7d 873f 9240 aabf 9297 15bf
00000180: fae4 74be 7851 b73e 3465 f6bf 52b0 6dbd
00000190: c8df 2bbf c0f4 20bd 7978 81bd caf5 2bbf
000001a0: 0ee4 95bf 554c 98be d4b5 82be 08f7 b6bf
000001b0: d431 a3bf 06e9 0a3e 963b 033d f24e f9be
000001c0: 54f6 abbf 9c3b d3be 833b 203f e541 71bf
000001d0: 3dfb d4bf 0f89 2b3e 95c4 edbe 1e80 28be
000001e0: edd5 ca3d 1018 e93e eedb dabf 0dad c7bf
000001f0: 9eeb c2bf 3469 c5bf ffd6 033f 9edd 86bf
00000200: b431 fcbf 6efd 94be 0932 28bf 4cc2 943e
00000210: b921 72bf 1aec a1be 7bf1 45bf 7c41 d5be
00000220: ea66 bfbe 4342 49bf cc09 cbbd 126b 5dbf
00000230: 94d4 3f3f c974 983b 5b3d 6bbe 2feb a7bf
00000240: 5f44 21bf 0614 893e 5dbf cebe 3a82 77be
00000250: ce85 273f bfaa b7bf b4d7 75bf e32d d4bf
00000260: 7ebc 51c0 71a3 ee3d 8c05 babf d6d6 c4bf
00000270: ebce bbbf 5a0c 2ec0 aa6c 43be a306 b1be
00000280: 3c01 94be 4312 703e d0ba 43be 90fe d6bf
00000290: f563 f73e b165 d4be ad3e 823e c3b0 0dbf
000002a0: 219e 89be b094 6cbf e54c cc3e b0f2 55bf
000002b0: 72c3 0fbf 1631 41be 8669 66be 6aee f9be
000002c0: 1124 9bbf f9de 00c0 6221 c73d 87a0 18bf
000002d0: 1fde 53bf ea73 98bf 4e34 babe 95be 993d
000002e0: aa50 f63d a9b4 423e 376a 903e 18fa 453d
000002f0: c34d 0a3f a1bf 60bc e5b0 d33e 627d 82bf
00000300: 0c7a dbbf c8e2 4cbf 3439 bcc0 cb53 b33b
00000310: 1c9d cc3e d391 953d 116a a73e 0cf6 c13d
00000320: 24bd 863e 1ae7 db3d f8d6 a63e c367 523d
00000330: 517e 653e 6cca 933e 2389 f83e 58ec f73d
00000340: 3694 d53e 2798 143e 3c1d 303e 6c07 ff3e
00000350: 7c96 113f 1791 c53d 8b41 06be 6c82 743d
00000360: 3c27 f73d f75d 5e3e 3440 143f 69c0 eb3d
00000370: 9723 81bd 63ab 01bc 2ea9 b6bf 9219 5dbf
00000380: 3de5 cf3d 28fd 69be ad69 1dc0 62c9 52bf
00000390: 3dc7 4dbf 3ba7 ac3e db13 66bf 0760 f2be
000003a0: d2b1 233d 6f8d 153e 285e 6fbf 96ef d2bf
000003b0: f639 06be 3693 9abf 0238 47bf 525e 423f
000003c0: f448 61be 6661 afbf 1a4b d5be 8151 f33e
000003d0: 7760 79bf 8d45 edbe 38b1 50bf 8fdb eabe
000003e0: 4c43 ffbe eb99 e1bd 97d6 c4bf 6f57 fabf
000003f0: 448f 6abf 5451 84bf 82b3 5a3f beee a2bf

fc1.bias f4 [64]
0.28978065 -0.49190426 -0.32487193 -0.29681653 -0.08243797 -0.29738998 -0.21727437 -0.019960836
0.8185394 -0.054670457 -0.11039306 0.033505883 0.1515201 -0.095605604 -0.29584807 0.011464823
-0.0095207095 -0.62997395 0.19389254 -0.46141186 -0.23709999 -0.30399793 -0.09342849 -0.18890949
0.3819093 -0.16968772 -0.28968778 -0.3669725 0.11071194 0.03680592 -0.33296713 -0.4951668
-0.50947577 -0.30738834 -0.051718805 -0.12742192 -0.26320037 0.100805886 -0.3086811 -0.9063053
-0.55284446 -0.2777499 -0.23152353 -0.09234133 -0.239235 -0.31984156 0.043934595 0.52660275
-0.3386911 -0.03297513 -0.38214687 -0.3829067 -0.31777504 -0.33994767 -0.21725045 -0.55687165
-0.18800043 -0.27686355 0.04038487 -0.26622903 -0.04685168 -0.24418525 -0.31031796 -0.40936166
00000000: 215e 943e e0da fbbe 9d55 a6be 56f8 97be
00000010: 3dd5 a8bd 8043 98be 2c7d 5ebe e884 a3bc
00000020: cc8b 513f 21ee 5fbd c215 e2bd 773d 093d
00000030: 1628 1b3e dfcc c3bd 6679 97be f4d6 3b3c
00000040: c0fc 1bbc f945 21bf c48b 463e 2d3e ecbe
00000050: 57ca 72be 9ea5 9bbe 7057 bfbd 7d71 41be
00000060: 9e89 c33e 9ec2 2dbe f551 94be d2e3 bbbe
00000070: f1bc e23d cec1 163d ab7a aabe 8186 fdbe
00000080: 016d 02bf 0162 9dbe 19d7 53bd e47a 02be
00000090: 33c2 86be 5173 ce3d 730b 9ebe a003 68bf
000000a0: 3787 0dbf 3c35 8ebe 8114 6dbe 741d bdbd
000000b0: 05fa 74be 46c2 a3be c3f4 333d 70cf 063f
000000c0: eb68 adbe ee10 07bd c1a8 c3be 590c c4be
000000d0: 69b3 a2be 9f0d aebe e776 5ebe 248f 0ebf
000000e0: 2f83 40be 0fc1 8dbe 9b6a 253d 2c4f 88be
000000f0: 8ce7 3fbd b30b 7abe ffe1 9ebe da97 d1be

fc2.weight f4 [64, 64]
-0.27300498 -0.21866408 -0.17281051 -0.5565716 0.3118043 0.22412948 0.24719141 -0.82602125
-0.12249021 -0.8037141 0.13622046 -0.21491237 -2.0387292 0.11429726 0.4815289 0.433876
-0.20013675 0.41813627 -0.57181317 0.21634153 0.19133052 -0.50600094 0.10312025 0.057004005
0.28904337 0.02134462 0.32908362 -0.7599058 0.05473861 0.27937225 0.38750067 -0.046186216
-0.000120462675 0.4845845 0.54266375 0.30751878 -0.80673414 0.2527423 -0.34780678 0.35052222
0.16934708 -0.078138754 0.07409739 0.2516886 0.2044281 -0.3599571 -0.09224695 -0.98762834
-0.31488335 -0.20378867 -0.36081165 0.0004832376 -0.39880994 0.21228342 -0.01694443 -0.27423596
-0.4898238 -0.16278256 -0.7377259 -1.0148697 -0.40454084 0.39367178 -0.5548376 0.3625202
0.731655 -0.96172184 -0.07382088 0.29899633 -0.09859482 -0.48996156 0.31960875 -0.31339115
0.13176902 0.35422784 -1.4107741 0.55253047 -1.0116186 -0.12809925 -0.5916669 -0.8335783
-0.30368942 0.2387522 -1.606036 -0.028387124 -0.55711734 -0.6921962 -0.4767188 0.8136773
-0.4645776 -0.31614178 -0.1899409 -0.51758134 -0.21711826 -0.17959224 0.71663696 -1.1012392
0.22865535 0.46328485 -1.1020461 0.38597125 -0.01860056 -1.0010997 -0.1095544 -0.4952644
-0.20427111 -0.09573554 -1.3505571 0.24316931 0.30249873 -0.20731555 -0.020064643 -0.06978703
0.6709917 0.19251521 0.08748376 -0.08586895 0.2534587 0.17123257 -1.7844115 -0.14538659
-0.28477427 0.022764387 -0.53142196 -0.040491436 -0.44728705 0.09764061 0.28471038 0.53453195
-0.24675603 -0.23418358 -0.19050537 -0.22378244 -0.28986722 -0.15956473 -0.5008028 -0.37471086
0.12116337 -0.03844688 -0.20437497 0.13195398 -0.42960438 0.08407538 -0.30802575 -0.09382587
-0.47578505 -0.2578482 -0.15198998 -0.24315672 -0.2130066 -0.10826644 -0.35229594 0.06524878
-0.1102589 -0.03310795 0.2153228 -0.07488944 -0.23942697 0.2540361 0.3423426 -0.18694536
-0.5615893 -0.27221638 -0.33380857 -0.045106646 0.052841213 -0.26776496 0.30416268 -0.2425467
0.19845814 -0.30283803 -0.30646998 -0.41651562 -0.25966632 0.020353494 -0.70337 -0.6619233
-0.231498 -0.3001628 -0.15326917 -0.40557152 -0.39852953 -0.3379895 -0.94143355 -0.4403642
-0.25943008 0.02658717 -0.14634587 0.10301503 -0.38390726 0.20547253 -0.41307223 -0.19469942
0.26767156 -0.3744236 -0.043675285 0.24062866 -0.27228722 0.36513895 -1.2220399 -0.7498711
-0.57565737 0.8732808 -1.966761 0.13822506 -0.6049377 0.84669507 0.48930237 -0.03491878
0.03207557 -0.46517244 -0.6885304 0.34889302 0.30111343 -0.14982662 -1.2358835 0.1263582
-0.17170328 0.50424594 0.095470384 0.6200787 -0.03898203 -0.13210279 -0.62178785 0.1398737
0.2683149 0.14782627 -0.9347027 -0.13887422 -1.2837796 -0.51252204 0.046752483 0.0852235
0.26707128 -0.07194392 0.4659622 -0.41811916 -0.6579309 -0.5712357 -0.7009216 0.19712926
-0.23202261 -0.027584497 0.054253895 0.57310134 0.09162403 0.10261284 0.04095104 -0.20761828
-0.71221346 -0.22573519 -1.203097 -0.093500316 0.28927094 0.021231234 -0.3574555 -0.98742515
00000000: 4fc7 8bbe 7ae9 5fbe 3df5 30be 7a7b 0ebf
00000010: d0a4 9f3e 3382 653e bf1f 7d3e 2176 53bf
00000020: 26dc fabd 35c0 4dbf 607d 0b3e fd11 5cbe
00000030: 8a7a 02c0 af14 ea3d f58a f63e ff24 de3e
00000040: a6f0 4cbe f515 d63e 5962 12bf a288 5d3e
00000050: 26ec 433e 4789 01bf b630 d33d 087d 693d
00000060: 7efd 933e eada ae3c a67d a83e 3089 42bf
00000070: 9835 603d e109 8f3e 7d66 c63e c22d 3dbd
00000080: e8a0 fcb8 761b f83e 03ec 0a3f 1a73 9d3e
00000090: 2186 4ebf 7067 813e bb13 b2be a677 b33e
000000a0: 5269 2d3e 3607 a0bd 5fc0 973d 54dd 803e
000000b0: 9a55 513e 4c4c b8be f8eb bcbd 36d5 7cbf
000000c0: 6438 a1be faad 50be 4ebc b8be 0e5b fd39
000000d0: d130 ccbe d360 593e 0ccf 8abc a868 8cbe
000000e0: 2fca fabe 79b0 26be 9bdb 3cbf 40e7 81bf
000000f0: fa1f cfbe 598f c93e d609 0ebf 3f9c b93e
00000100: be4d 3b3f 6733 76bf 672f 97bd 0c16 993e
00000110: 15ec c9bd 3edc fabe c2a3 a33e ce74 a0be
00000120: 75ee 063e 5a5d b53e 3f94 b4bf a372 0d3f
00000130: b87c 81bf 732c 03be 7b77 17bf 6365 55bf
00000140: 2e7d 9bbe 757b 743e 9692 cdbf 1d8c e8bc
00000150: 3e9f 0ebf c533 31bf 7d14 f4be 284d 503f
00000160: 1ddd edbe 56dd a1be de7f 42be 3680 04bf
00000170: 4054 5ebe 07e7 37be 8575 373f 68f5 8cbf
00000180: a124 6a3e ac33 ed3e d90f 8dbf 069e c53e
00000190: 3460 98bc 0924 80bf 0f5e e0bd 4c93 fdbe
000001a0: 722c 51be ff10 c4bd 0edf acbf 6001 793e
000001b0: 1de1 9a3e 874a 54be 9b5e a4bc 81ec 8ebd
000001c0: 1dc6 2b3f b522 453e b02a b33d 0fdc afbd
000001d0: 57c5 813e 9757 2f3e 9967 e4bf 39e0 14be
000001e0: efcd 91be 617c ba3c 450b 08bf 59da 25bd
000001f0: cf02 e5be cdf7 c73d 8fc5 913e 16d7 083f
00000200: 9dad 7cbe d2cd 6fbe d713 43be 3927 65be
00000210: 7a69 94be f064 23be 9d34 00bf 1ada bfbe
00000220: 8024 f83d 7a7a 1dbd ac47 51be f21e 073e
00000230: 1bf5 dbbe b62f ac3d 8db5 9dbe c727 c0bd
00000240: 199a f3be ae04 84be 43a3 1bbe 13fe 78be
00000250: 671e 5abe ccba ddbd 2260 b4be 27a1 853d
00000260: 6bcf e1bd 349c 07bd 957d 5c3e a25f 99bd
00000270: 582c 75be 0511 823e 8747 af3e 9b6e 3fbe
00000280: 51c4 0fbf f25f 8bbe f5e8 aabe bfc1 38bd
00000290: 0770 583d 7d18 89be 36bb 9b3e 2a5e 78be
000002a0: 9c38 4b3e 960d 9bbe a2e9 9cbe 8941 d5be
000002b0: fcf2 84be 5fbc a63c 0e10 34bf ce73 29bf
000002c0: d00d 6dbe f0ae 99be 98f2 1cbe 12a7 cfbe
000002d0: 100c ccbe f60c adbe ca01 71bf 6b77 e1be
000002e0: 05d4 84be 56cd d93c b1db 15be 8bf9 d23d
000002f0: 7e8f c4be 6467 523e 347e d3be 495f 47be
00000300: 3f0c 893e 73b4 bfbe dbe4 32bd 5c67 763e
00000310: 3b69 8bbe 7ef3 ba3e ce6b 9cbf 8df7 3fbf
00000320: 485e 13bf 558f 5f3f d3be fbbf df8a 0d3e
00000330: 32dd 1abf 02c1 583f d785 fa3e ff06 0fbd
00000340: ac61 033d 152b eebe 8743 30bf 1ba2 b23e
00000350: 8a2b 9a3e 266c 19be 6e31 9ebf 0b64 013e
00000360: fcd2 2fbe 4316 013f fa85 c33d 7abd 1e3f
00000370: 9fab 1fbd f445 07be 7d2d 1fbf 0d3b 0f3e
00000380: 9260 893e c55f 173e ad48 6fbf 0b35 0ebe
00000390: e452 a4bf a534 03bf 887f 3f3d a989 ae3d
000003a0: 91bd 883e 5557 93bd 9992 ee3e b713 d6be
000003b0: 296e 28bf 813c 12bf 996f 33bf 41dc 493e
000003c0: 5697 6dbe e2f8 e1bc 5539 5e3d c5b6 123f
000003d0: 61a5 bb3d ae26 d23d 47bc 273d e399 54be
000003e0: 9f53 36bf 2027 67be 15ff 99bf 187d bfbd
000003f0: 521b 943e 20ed ad3c 6804 b7be e5c7 7cbf

fc2.bias f4 [64]
-0.7174098 -0.63004017 -0.5369151 -0.3216533 -0.67204773 -0.9774746 -0.27058536 -0.0009648169
-0.29648063 -0.38425007 -0.40609574 -0.44516033 -0.49139294 -0.4092884 -0.9812019 -0.625722
-0.6272148 0.12914886 -0.7272212 -0.6333735 -0.69300884 -0.39740452 -0.5923411 -1.3947809
-0.66387945 -0.51807755 -0.69441664 -0.4181455 -0.78969306 -0.19299291 -0.47234347 -0.12632158
-0.51860225 -0.73851 -0.49308074 -1.0401042 -1.0859616 -0.52671945 -0.5625965 0.2511517
-0.2761265 -0.45940748 -0.5244477 -0.81243813 -0.44143486 -1.0068908 -0.07643873 -1.1411979
0.2046286 -0.56207955 -0.8542186 0.17805712 -0.6384676 -0.19091405 -0.5454177 -0.65138066
-0.90416396 -1.0410314 -0.52471733 0.118541226 -0.6542822 0.40693265 -0.5325948 -0.6425607
00000000: 2ba8 37bf 504a 21bf 4573 09bf beaf a4be
00000010: 520b 2cbf c63b 7abf 2a8a 8abe c4eb 7cba
00000020: 4fcc 97be 6dbc c4be c8eb cfbe 0eec e3be
00000030: db97 fbbe 408e d1be 0c30 7bbf 512f 20bf
00000040: 2691 20bf 993f 043e 2b2b 3abf c424 22bf
00000050: 0769 31bf 9b78 cbbe aba3 17bf 2e88 b2bf
00000060: 01f4 29bf bba0 04bf 4ac5 31bf 2b17 d6be
00000070: 5329 4abf ef9f 45be 01d7 f1be 725a 01be
00000080: 1ec3 04bf fe0e 3dbf 1475 fcbe 2222 85bf
00000090: ca00 8bbf 16d7 06bf 5306 10bf f596 803e
000000a0: 7460 8dbe 7537 ebbe 3442 06bf f2fb 4fbf
000000b0: c003 e2be cce1 80bf e98b 9cbd c612 92bf
000000c0: 298a 513e 72e4 0fbf 12ae 5abf 9b54 363e
000000d0: 9d72 23bf f97e 43be 7fa0 0bbf e2c0 26bf
000000e0: 4a77 67bf 8440 85bf e053 06bf bec5 f23d
000000f0: 0a7f 27bf 7a59 d03e 2258 08bf dc7e 24bf

fc3.weight f4 [32, 64]
-0.5324645 -0.17141736 0.26916954 0.3480672 0.15670654 0.5093644 0.0051156087 0.44442797
0.48072916 -0.5913173 0.28523612 0.23720443 -0.27774328 0.18879959 0.43404406 -0.62730545
-0.67540073 -0.19962591 -0.1370753 0.0023139725 0.08323482 0.8139995 -0.19228107 -0.07398083
0.12470859 -0.38745177 0.10101155 -0.04403653 0.41273308 0.22352172 0.31173483 -0.35063642
-0.37146148 -0.82266146 -0.47532868 -0.87706065 -0.14163803 -1.1982352 -0.9937099 -1.3152161
0.20985013 0.2024492 0.6130916 0.7301378 0.5666183 -0.9508934 0.38945928 0.5392334
0.36287203 0.6953891 -0.95334685 -0.20120719 0.061917126 -1.1974392 0.35727388 -0.174808
-0.9079001 0.1176806 0.08785339 0.06231607 -0.72018766 0.32673058 -1.5936099 -0.6992822
0.5526189 0.004247787 -0.3775008 0.15970005 -0.8454016 0.6340931 -0.038700562 -0.03806669
-0.018966436 -0.4219627 0.6642106 0.6625047 -1.828429 0.48715433 -0.028408684 -0.23323445
0.25982577 0.030468257 0.043022405 0.5495725 -0.015843984 -0.37768066 1.0754963 -0.4448386
0.06713996 -0.1066239 -0.21408339 -0.021817274 -0.016729634 -0.33979422 -1.3232918 0.55983514
-0.19463311 0.19328354 0.22516666 0.7841115 -1.0449237 -0.39600596 0.4864903 0.19654195
0.090437315 -1.1579058 0.060611222 0.4430498 -0.17222685 -0.28682727 0.38022518 0.08367254
-0.7509138 0.15743734 0.21753907 -0.27898276 0.1993549 -0.3852247 0.29217023 0.057476312
-0.1718234 -0.56481445 -0.28056663 -0.17239842 0.24077784 -0.04187126 -0.14433871 0.0013934401
-0.13739268 0.15537912 0.19923185 0.120173454 0.09559943 0.4192368 0.124061935 0.26490748
-0.21359152 -0.1573713 -0.10403364 -0.40964013 -0.21993198 -0.06584812 0.18101428 -0.06037664
-0.42640764 -0.0011922395 0.16403961 -0.06733054 0.05310377 -0.051409394 -0.16369136 0.3205763
0.07439159 -0.18639751 0.15092292 -0.21047345 -0.5645774 0.058828123 0.05198432 -0.0698343
-0.13487442 -0.43707705 0.23370703 -0.36374775 -0.19235721 -0.2467882 -0.32043037 -0.03973302
0.13520502 0.10616305 0.12742124 0.1960031 0.15292531 -0.46861953 -0.21383461 0.043798424
-0.19771756 -0.56077677 -0.37478873 0.2404845 -0.6277613 -0.41145197 0.19196616 0.15646496
-0.5865578 -0.38982573 0.07117471 -0.13838755 -0.5433616 0.072239734 -0.78495 -0.32172135
0.24691524 -0.4040543 -0.07903918 0.21011302 -0.16250971 0.06924554 -0.09061234 -0.16008188
0.20176648 0.12643497 -0.42832983 0.10661955 -0.64592695 0.012686391 -0.2592455 -0.43105045
0.640672 -0.36301088 0.49191028 0.37931252 0.20618045 -0.19751869 0.4379026 -0.1318935
0.22558786 -0.1028896 -0.59655553 0.08199114 0.13913098 -0.5778173 0.5275976 -0.2781156
0.23616534 -0.9049052 0.4881127 0.65523607 0.12569827 0.9650628 0.39100146 -1.0478921
-0.09462812 0.32189015 -0.5862318 0.67641455 -0.2777499 -0.40732569 -0.33671066 -0.61887765
0.53372866 0.25889274 -0.11053967 -0.40699527 -0.4133153 0.36130464 -0.19192511 -0.20719488
0.6823924 -0.8511083 -0.8781794 -0.049194563 -0.22811064 -0.013122967 0.10081946 0.20148964
00000000: 984f 08bf 0888 2fbe 97d0 893e dd35 b23e
00000010: ae77 203e b565 023f d6a0 a73b 108c e33e
00000020: 2222 f63e 9260 17bf 780a 923e b8e5 723e
00000030: 5e34 8ebe ae54 413e 063b de3e 1797 20bf
00000040: 10e7 2cbf bc6a 4cbe 785d 0cbe 04a6 173b
00000050: 0477 aa3d 4562 503f 54e5 44be 4383 97bd
00000060: 3867 ff3d 1460 c6be 25df ce3d a65f 34bd
00000070: c051 d33e e1e2 643e b59b 9f3e 9e86 b3be
00000080: 3330 bebe f199 52bf 485e f3be 0c87 60bf
00000090: 8f09 11be c55f 99bf c663 7ebf 0059 a8bf
000000a0: f4e2 563e d84e 4f3e 92f3 1c3f 50ea 3a3f
000000b0: e60d 113f c06d 73bf 3567 c73e 330b 0a3f
000000c0: 5dca b93e 0505 323f 8a0e 74bf 4209 4ebe
000000d0: d09c 7d3d b045 99bf 9aec b63e de00 33be
000000e0: 246c 68bf 8702 f13d 7aec b33d 233f 7f3d
000000f0: 385e 38bf 3b49 a73e 69fb cbbf 2904 33bf
00000100: 6f78 0d3f 0531 8b3b c947 c1be 6988 233e
00000110: 3d6c 58bf ed53 223f 7b84 1ebd d1eb 1bbd
00000120: 805f 9bbc 7f0b d8be b509 2a3f e899 293f
00000130: f609 eabf 4b6c f93e 54b9 e8bc 03d5 6ebe
00000140: e207 853e 9198 f93c 4338 303d c9b0 0c3f
00000150: 3ecb 81bc 5c5f c1be dda9 893f e3c1 e3be
00000160: ad80 893d a25d dabd ad38 5bbe 24ba b2bc
00000170: 960c 89bc 82f9 adbe a061 a9bf 5b51 0f3f
00000180: e74d 47be 1fec 453e 1792 663e 88bb 483f
00000190: 0fc0 85bf 4bc1 cabe 4215 f93e 4b42 493e
000001a0: 3337 b93d 4236 94bf 7943 783d 6cd7 e23e
000001b0: 3c5c 30be 06db 92be e0ac c23e 825c ab3d
000001c0: e33b 40bf 4137 213e 90c2 5e3e d4d6 8ebe
000001d0: b123 4c3e 2c3c c5be 5697 953e 486c 6b3d
000001e0: 79f2 2fbe ae97 10bf 6ea6 8fbe 3689 30be
000001f0: 778e 763e 3381 2bbd 87cd 13be 17a4 b63a
00000200: abb0 0cbe b41b 1f3e 6f03 4c3e 801d f63d
00000210: a2c9 c33d 35a6 d63e 2f14 fe3d f4a1 873e
00000220: bcb7 5abe f125 21be 970f d5bd 5abc d1be
00000230: d935 61be 61db 86bd cf5b 393e 7f4d 77bd
00000240: 1a52 dabe eb44 9cba 00fa 273e 98e4 89bd
00000250: 5783 593d a892 52bd b59e 27be 9422 a43e
00000260: 9e5a 983d fdde 3ebe 8a8b 1a3e 5a86 57be
00000270: 2588 10bf c2f5 703d 83ed 543d 4905 8fbd
00000280: 851c 0abe 90c8 dfbe e550 6f3e 253d babe
00000290: 4af9 44be 0cb6 7cbe 730f a4be 17bf 22bd
000002a0: 2f73 0a3e 036c d93d b77a 023e 09b5 483e
000002b0: 7498 1c3e e6ee efbe 76f7 5abe fa65 333d
000002c0: 7976 4abe 118f 0fbf 4fe4 bfbe 9241 763e
000002d0: f7b4 20bf d5a9 d2be c792 443e 5a38 203e
000002e0: a728 16bf 3d97 c7be 0cc4 913d 77b5 0dbe
000002f0: bf19 0bbf 6df2 933d 7cf2 48bf a9b8 a4be
00000300: 59d7 7c3e 35e0 cebe 4bdf a1bd de27 573e
00000310: f268 26be 9bd0 8d3d f692 b9bd 81ec 23be
00000320: df9b 4e3e 2b78 013e 0c4e dbbe 5a5b da3d
00000330: 785b 25bf 95da 4f3c d4bb 84be a5b2 dcbe
00000340: 1503 243f 90dc b9be aadb fb3e 4035 c23e
00000350: f820 533e 5742 4abe c534 e03e 170f 07be
00000360: 8100 673e c8b7 d2bd ddb7 18bf f9ea a73d
00000370: 5a78 0e3e d6eb 13bf a310 073f 2b65 8ebe
00000380: 54d5 713e dea7 67bf e8e9 f93e 8dbd 273f
00000390: 0cb7 003e 5b0e 773f 5831 c83e 5421 86bf
000003a0: 63cc c1bd c9ce a43e 4a13 16bf 8129 2d3f
000003b0: 3c35 8ebe fe8c d0be 5765 acbe c46e 1ebf
000003c0: 71a2 083f 978d 843e 9f62 e2bd af61 d0be
000003d0: 109e d3be ecfc b83e 0488 44be e52a 54be
000003e0: 45b1 2e3f 3ce2 59bf 5dd0 60bf 3d80 49bd
000003f0: d695 69be b701 57bc 6f7a ce3d 4d53 4e3e

fc3.bias f4 [32]
-0.90838575 -0.06200999 1.280735 -0.35634512 0.08381526 -0.44669768 -1.118288 -0.013768838
-0.279351 0.030931864 1.4462875 -0.1342632 -0.0705357 -0.3521242 -0.386893 -0.4961802
-0.20485258 -0.19001946 -0.24337973 0.3535665 0.40335515 -0.525528 -0.22890072 0.33997366
0.0569478 0.34920555 -0.20273384 1.1047004 0.20903313 -0.3231772 -1.0866483 1.0818727
00000000: f88b 68bf 30fe 7dbd 20ef a33f de72 b6be
00000010: 56a7 ab3d 8fb5 e4be 1024 8fbf b196 61bc
00000020: 1807 8fbe d264 fd3c f31f b93f 4b7c 09be
00000030: 0575 90bd a049 b4be d716 c6be 550b febe
00000040: e0c4 51be 7694 42be 8938 79be ab06 b53e
00000050: 9184 ce3e 0189 06bf f364 6abe 0711 ae3e
00000060: 1942 693d 12cb b23e 7699 4fbe d366 8d3f
00000070: c80c 563e 7b77 a5be 4b17 8bbf ce7a 8a3f

fc4.weight f4 [4, 32]
-0.15021089 0.15504868 0.3608217 0.17317533 -0.06710872 0.1689328 -0.24065767 -0.20232937
0.01332191 -0.027364653 0.6059937 0.09044797 0.15007913 0.12812707 -0.38639975 -0.35935485
-0.036252838 0.056230545 0.08535565 -0.13499746 -0.029992385 -0.6892747 0.16259426 0.0034157087
0.2024948 0.0075297314 0.038580805 0.41813892 0.17254917 0.18843776 -0.18253186 0.44647342
-0.20518479 0.14349326 0.57272077 0.06184845 0.16530134 0.2346742 -0.26245946 -0.03469845
0.04812625 0.13427722 0.5739569 0.161728 0.03447037 0.11632427 -0.14715543 0.26789752
0.16514617 -0.047934942 0.11639463 0.20673083 0.08757749 -0.22012289 -0.064614944 0.02683128
0.30805513 0.44243166 0.047199834 0.44065127 0.1623137 0.19648428 -0.07198375 0.41070652
-0.12199892 -0.3715326 0.6588003 0.18190297 -0.4352619 0.08814267 -0.30868563 0.14150226
0.14248022 -0.65864295 0.59273225 -0.04921281 -0.2798505 0.21593153 0.12526967 -0.56929386
-0.022027155 -0.056548752 -0.66257095 0.11711016 0.054194633 0.20233896 -0.3904231 -0.7651973
0.019131308 0.33485526 -0.11221887 0.24265525 0.16803451 0.101907015 0.06626047 0.48460886
-0.17992233 0.18105675 0.5990333 0.04199532 -0.4067247 0.18495108 -0.21235216 -0.29237595
-0.097807616 0.45709595 0.6452353 -0.16019349 0.21027878 0.015764289 -0.5106921 -0.19010498
-0.12082867 0.111501016 -0.09907376 -0.27231377 -0.24283417 -0.6583175 -0.24159256 -0.17017458
0.17227316 0.28329718 -0.26356778 0.4832823 -0.000789357 0.25369716 -0.29903704 0.23612727
00000000: e2d0 19be 15c5 1e3e 9fbd b83e e054 313e
00000010: 4c70 89bd b8fc 2c3e f76e 76be 6e2f 4fbe
00000020: 2444 5a3c d62b e0bc 6722 1b3f c93c b93d
00000030: 58ae 193e be33 033e 30d6 c5be 5cfd b7be
00000040: db7d 14bd 0052 663d f1ce ae3d c63c 0abe
00000050: 97b2 f5bc 4f74 30bf 1c7f 263e 15da 5f3b
00000060: cc5a 4f3e f7bb f63b e806 1e3d 4e16 d63e
00000070: bbb0 303e d4f5 403e a2e9 3abe 2a98 e43e
00000080: f61b 52be e6ef 123e d49d 123f cd54 7d3d
00000090: c144 293e 6f4e 703e 1661 86be f61f 0ebd
000000a0: 0820 453d f87f 093e d7ee 123f 069c 253e
000000b0: cd30 0d3d 6b3b ee3d eaaf 16be dd29 893e
000000c0: 141c 293e 6e57 44bd 4f60 ee3d 3fb1 533e
000000d0: d45b b33d e567 61be d754 84bd 46cd db3c
000000e0: 67b9 9d3e 6786 e23e 9d54 413d 0b9d e13e
000000f0: 9035 263e 2d33 493e 376c 93bd 2048 d23e
00000100: 92da f9bd 8539 bebe 23a7 283f c644 3a3e
00000110: a6da debe 2584 b43d 0b0c 9ebe f8e5 103e
00000120: 56e6 113e d39c 28bf 4dbd 173f 5f93 49bd
00000130: 9148 8fbe 281d 5d3e b146 003e 3ebd 11bf
00000140: 4b72 b4bc aa9f 67bd 409e 29bf 74d7 ef3d
00000150: 31fb 5d3d f231 4f3e 89e5 c7be f8e3 43bf
00000160: 43b9 9c3c 2672 ab3e 02d3 e5bd 9e7a 783e
00000170: 3d11 2c3e a0b4 d03d 92b3 873d a71e f83e
00000180: 8f3d 38be f166 393e 3f5a 193f 4903 2c3d
00000190: 383e d0be d163 3d3e d872 59be 4db2 95be
000001a0: 5c4f c8bd 7b08 ea3e 242e 253f c309 24be
000001b0: 5253 573e 1c24 813c b8bc 02bf e1aa 42be
000001c0: 0675 f7bd a55a e43d 2fe7 cabd b66c 8bbe
000001d0: 85a9 78be 7f87 28bf 0a64 77be 3f42 2ebe
000001e0: 6068 303e 540c 913e 5bf2 86be c770 f73e
000001f0: daec 4eba 98e4 813e 621b 99be 59cb 713e

fc4.bias f4 [4]
1.3943299 0.99605215 1.0798272 1.1353906
00000000: 6779 b23f 46fd 7e3f c737 8a3f 7b54 913f
